notebook/mymodel.tflite (tflite, 105560 bytes, 11 tensors)

sequential_5/dense_16/BiasAdd/ReadVariableOp f4 [64]
0	0xbc4f238b	-0.012642751
1	0x3c22844d	0.009919238
2	0xbc00721c	-0.007839706
3	0xbc68909f	-0.014194637
4	0xbbff70a9	-0.0077954126
5	0x3d456f34	0.048201755
6	0x3d664bdf	0.0562247
7	0x3bade9d0	0.0053074136
8	0xbc38ec07	-0.011286742
9	0xbb982712	-0.0046433294
10	0x3c3f69fc	0.0116829835
11	0xbb34e574	-0.0027602585
12	0xbbf41b29	-0.007449527
13	0x3bf161ee	0.0073664105
14	0xbc41a668	-0.0118194595
15	0xbcc7aa7d	-0.024373287
16	0xbc187f8a	-0.009307751
17	0x3bb6b08a	0.0055752443
18	0xbbd355cf	-0.006449438
19	0x3cbca853	0.023029482
20	0xbc065370	-0.008198604
21	0xbbc34163	-0.0059587224
22	0x3c4cdacc	0.012503337
23	0x3b615e9a	0.0034388662
24	0xbc1270d2	-0.008938031
25	0x3b286479	0.0025694652
26	0xbc140de3	-0.009036514
27	0xbc240261	-0.010010333
28	0xbc35d24b	-0.011097501
29	0x3ae8d542	0.0017763751
30	0xbb6c0afd	-0.0036017292
31	0xbbc1f087	-0.0059185657
32	0xbc20313f	-0.009777366
33	0x3d2e71ce	0.042589
34	0xbb14d9f9	-0.002271293
35	0x3d1844ad	0.03717487
36	0xbc04f827	-0.008115805
37	0xbc3a192f	-0.011358543
38	0xbc550687	-0.0130020445
39	0xbc2387bc	-0.009981092
40	0xbb8c5308	-0.004282359
41	0x3c5fcbb5	0.013659407
42	0x3b435070	0.0029802583
43	0xba955a26	-0.0011394664
44	0xbbce1db9	-0.0062901643
45	0xbbce2625	-0.0062911683
46	0xbbafd43f	-0.005365878
47	0xbc80e3bb	-0.01573359
48	0x3bb54af3	0.0055326163
49	0x3b54cb78	0.003246991
50	0xbc371124	-0.01117352
51	0xbc099575	-0.00839745
52	0xba02b6d0	-0.00049863476
53	0xbbb389a4	-0.0054790545
54	0x3bd14b42	0.0063871453
55	0xbbeac38a	-0.0071644234
56	0xbc290a99	-0.010317468
57	0x3cab44fe	0.020906921
58	0x3ba4f797	0.005034398
59	0xbc8ea8fb	-0.01741456
60	0x3a90bb4b	0.0011042146
61	0x3b8290c6	0.0039845435
62	0x39843390	0.0002521542
63	0x3c8a7a15	0.016903916

sequential_5/dense_15/BiasAdd/ReadVariableOp f4 [128]
0	0xbc51b390	-0.012799159
1	0xbb8e4c09	-0.00434256
2	0xbbc493a7	-0.005999047
3	0xbbdb39b4	-0.0066902284
4	0xbc4dce39	-0.012561374
5	0x3c082a81	0.008310915
6	0x3bc034ef	0.005865685
7	0x3b28247f	0.002565652
8	0xba2ec3f3	-0.0006666772
9	0xbb22e1df	-0.0024853868
10	0xbb973501	-0.004614473
11	0xbac46b9b	-0.0014985682
12	0xba5a7ed4	-0.0008334939
13	0xbc34dba8	-0.011038698
14	0xbc929da4	-0.017897435
15	0xbc8a545d	-0.01688593
16	0xbbcfafd2	-0.006338098
17	0xbc1340e6	-0.008987641
18	0x3c07bc93	0.008284706
19	0xbc0a3686	-0.008435851
20	0x39ee2cca	0.00045428268
21	0xb60d39a1	-2.1044182e-06
22	0x3aa8cd3d	0.0012878549
23	0xbca0e85c	-0.019642048
24	0x3caa7108	0.02080585
25	0xbb68894f	-0.0035482233
26	0xbc3a3d8a	-0.011367211
27	0xbbc09a26	-0.005877751
28	0xba7344e7	-0.00092799816
29	0xbc212b15	-0.009836932
30	0x3d280243	0.041017782
31	0xbc09ec73	-0.00841819
32	0x3c5604bd	0.013062653
33	0xbc1bac7b	-0.009501572
34	0xba5a3d23	-0.000832515
35	0xbc33165f	-0.010930627
36	0x3c561029	0.013065376
37	0xbccb6ae4	-0.024831243
38	0xbc6fabd5	-0.01462837
39	0xbb93cec9	-0.0045107347
40	0xb9953df9	-0.00028465668
41	0xbd29cfe7	-0.041458037
42	0x384c4088	4.869749e-05
43	0x3bc0b2c3	0.005880685
44	0xbbdc59c6	-0.006724569
45	0x3b6b8775	0.0035938893
46	0xbd084ed5	-0.033278305
47	0xbc2ae9ea	-0.010431746
48	0xbc4dda5e	-0.01256427
49	0x3b67c5df	0.0035365743
50	0x3bc12b96	0.0058950884
51	0x3ca73246	0.020409714
52	0x3c90bff5	0.017669657
53	0xb9985363	-0.00029053827
54	0xbc1ad65a	-0.009450519
55	0xbc256e91	-0.010097162
56	0x3c831b25	0.016004154
57	0x32c9b098	2.3479785e-08
58	0x3aac15ba	0.0013129034
59	0x3bfad49a	0.0076547386
60	0xbb849d3f	-0.0040470655
61	0xbb293326	-0.002581784
62	0x3be76c68	0.0070624836
63	0xbc01449c	-0.007889893
64	0x3a19f704	0.0005873295
65	0x3b8fd22e	0.004389069
66	0x3cb7244b	0.022356173
67	0xbc74f471	-0.0149508575
68	0x3d60a8b4	0.054848388
69	0x3a494a93	0.0007678654
70	0xbcaae3a3	-0.020860499
71	0xbbb8b2ca	-0.0056365477
72	0x3c23c710	0.009996191
73	0xbbb76cdf	-0.0055976952
74	0x3bfdaa5b	0.007741255
75	0x3c710aaa	0.014712015
76	0xbc0d0360	-0.008606762
77	0x3afc3902	0.0019243064
78	0xbc3da503	-0.011574986
79	0xbba5a129	-0.005054612
80	0x3b0f7672	0.0021890667
81	0xbc40a94d	-0.011759114
82	0xbb99d0ae	-0.004694066
83	0xbbc14a69	-0.005898763
84	0x3cd7d37d	0.026345963
85	0x3c3ce844	0.011529986
86	0xbc29f4b8	-0.010373287
87	0xbc73d916	-0.0148833
88	0xbc38527a	-0.011250133
89	0xbc83b0b2	-0.016075466
90	0x3c253e66	0.010085678
91	0xbc0ff079	-0.0087853605
92	0xbb9d30f5	-0.004797096
93	0xbc666eea	-0.01406453
94	0xbc86be67	-0.016448213
95	0x3c92c75a	0.017917324
96	0xba465b4a	-0.0007566704
97	0xbc8daceb	-0.017294368
98	0xbc0b626f	-0.008507355
99	0xbc8cb571	-0.017176362
100	0xbccfcb67	-0.025365544
101	0xbb69e630	-0.003569018
102	0xbb4cf359	-0.0031272976
103	0xbc833436	-0.016016107
104	0xbc41af92	-0.011821644
105	0xbbb2f6f1	-0.0054615666
106	0xbb8d37d4	-0.0043096337
107	0xbb90c354	-0.004417816
108	0x3c86fdd8	0.016478464
109	0xbbb4f1e8	-0.0055220015
110	0xbc311c2b	-0.010809938
111	0x3b9ba594	0.004749963
112	0xbb27b3c2	-0.0025589322
113	0x3cecc477	0.028902275
114	0x3b28104c	0.002564448
115	0x3b819deb	0.003955593
116	0xbb91c386	-0.004448357
117	0xbc770379	-0.015076512
118	0x3bfd6a17	0.007733594
119	0x3cf93e35	0.03042517
120	0xbc395363	-0.011311385
121	0x3b3f6f41	0.00292106
122	0x3c948db3	0.018133974
123	0xbbe04b85	-0.00684494
124	0x3bb21dab	0.0054356656
125	0x3b4a1ae4	0.0030838782
126	0xbbf795c6	-0.007555696
127	0x3ad18575	0.0015985208

sequential_5/conv1d_17/BiasAdd/ReadVariableOp f4 [24]
0	0xbad79367	-0.0016447128
1	0xbb4b3c9b	-0.0031011465
2	0xbc2a35c4	-0.010388795
3	0x3cff95bb	0.031199327
4	0xbc4c97c7	-0.012487358
5	0xbca4f1a5	-0.020134756
6	0xbcadf30b	-0.021234056
7	0xbbe94aca	-0.0071195113
8	0x39419c6e	0.00018464189
9	0x3c21698f	0.009851827
10	0xbc4e1e62	-0.012580486
11	0xbc2c2bee	-0.0105085205
12	0x3cb9d4de	0.02268451
13	0x3c3407cc	0.010988187
14	0xbc03afa9	-0.008037486
15	0xbbe47a24	-0.006972568
16	0xbc65296b	-0.013986926
17	0xbbc8d5f7	-0.006129022
18	0xbc47560e	-0.012166513
19	0xbc527af0	-0.012846693
20	0xbca107ae	-0.019656982
21	0xbc58e434	-0.013238002
22	0x3b5dd284	0.00338474
23	0xbc033a18	-0.008009456

sequential_5/conv1d_16/BiasAdd/ReadVariableOp f4 [12]
0	0xbce68419	-0.028139161
1	0x3b213644	0.0024598995
2	0xbc7192fa	-0.014744515
3	0xbb289735	-0.0025724892
4	0x3c3bdf34	0.01146679
5	0xbc9714ab	-0.018442472
6	0xbacf3cff	-0.0015811025
7	0x3bd17bb6	0.0063929213
8	0x3c731468	0.014836408
9	0x3cf64849	0.030063765
10	0x3c3d85c0	0.011567533
11	0xbce80488	-0.028322473

sequential_5/conv1d_15/BiasAdd/ReadVariableOp f4 [6]
0	0xbc8bd0d4	-0.01706735
1	0x393a96a9	0.00017794468
2	0xbaea05ed	-0.0017854549
3	0xbc98e244	-0.01866258
4	0x00000000	0.0
5	0x00000000	0.0

sequential_5/dense_15/MatMul f4 [128, 120]
0	0x3dbe1c9c	0.092828006
1	0x3e0e1f3c	0.13879102
2	0xbd3296bf	-0.043600794
3	0x3ac639a3	0.0015123378
4	0x3cec97ba	0.028880943
5	0x3d594d3b	0.05305217
6	0x3bd4f9c7	0.0064995023
7	0x3e2d1b04	0.16904837
8	0x3db41093	0.08792224
9	0xbd686eed	-0.056746412
10	0xbcec3666	-0.028834533
11	0x3bb5dfee	0.005550376
12	0xbd067a43	-0.03283144
13	0x3deaef9f	0.11471485
14	0xbda69771	-0.08134354
15	0x3c9158fe	0.01774263
16	0xbe0b2ba9	-0.13590874
17	0xbd673fb6	-0.056457244
18	0xbd283fc9	-0.041076455
19	0xbdcd3c68	-0.10021287
20	0xbd40411f	-0.046937104
21	0xbde91c52	-0.11382355
22	0xbdb25db3	-0.08709278
23	0xbe153e89	-0.14574637
24	0x3cf5c19a	0.029999543
25	0xbc95bcd3	-0.018278515
26	0x3de1d827	0.11027556
27	0x3ce88a7d	0.028386349
28	0x3d50f495	0.0510145
29	0x3df8ffd1	0.12158168
30	0xbd8d21fa	-0.06891246
31	0x3db6b32d	0.08920894
32	0x3e13554a	0.14388004
33	0x3d92d0e7	0.07168751
34	0x3d11602c	0.035492107
35	0xbe0011d8	-0.12506807
36	0x3d9dfd93	0.07714381
37	0x3e509b41	0.20371725
38	0xbc8e5694	-0.017375268
39	0x3e12a77a	0.143217
40	0x3d2bb899	0.041924093
41	0x3d50db42	0.05099035
42	0xbe1d6656	-0.1537107
43	0x3dcc01d1	0.09961284
44	0x3e28147b	0.16414063
45	0xbb317155	-0.0027075608
46	0xbe04d30b	-0.12971132
47	0xbe0c8200	-0.13721466
48	0xbd51166d	-0.051046778
49	0xbd4b7cf1	-0.0496797
50	0x3e1456f2	0.14486292
51	0xbb3cd0d3	-0.0028810992
52	0xbdeac7c9	-0.11463887
53	0xbdb2e0ff	-0.08734321
54	0x3b45e2e5	0.0030195054
55	0xbd84e6db	-0.06489345
56	0xbdbd6eba	-0.09249635
57	0xbcb96702	-0.022632126
58	0x3da0921f	0.078403704
59	0x3d81cc38	0.0633778
60	0x3cd63610	0.026148826
61	0xbd8af029	-0.06784088
62	0xbe187bec	-0.14891022
63	0x3e2e0944	0.16995722
64	0xbd2ffceb	-0.04296581
65	0x3d14287b	0.036171418
66	0x3daf1f5f	0.085509054
67	0x3d1672be	0.03673052
68	0xbdea9001	-0.11453248
69	0x3df7850c	0.120859236
70	0xbe008cb8	-0.1255368
71	0xbd44cfc7	-0.048049714
72	0xbcaf4884	-0.021396883
73	0x3e09f66d	0.1347291
74	0x3d4fb02e	0.050705127
75	0x3ddc9bfb	0.107719384
76	0x3d9cd76e	0.076582775
77	0x3e165fcd	0.14684983
78	0xbdd0aded	-0.10189424
79	0xbe0882bd	-0.13331123
80	0xbde38750	-0.11109793
81	0x3e0453ad	0.12922545
82	0xbcec4f8a	-0.02884652
83	0x3da9454e	0.08265172
84	0x3d6b21b6	0.057405196
85	0x3d829c94	0.06377521
86	0x3d3e9be1	0.046535376
87	0xbd409d9f	-0.04702532
88	0x3cfea36b	0.031083783
89	0x3e254b18	0.16141927
90	0x3e00db98	0.12583768
91	0xbd8b9cce	-0.068170175
92	0xbdff64fc	-0.12470433
93	0xbde630bd	-0.11239765
94	0x3bbfa35a	0.0058483304
95	0xbd73d547	-0.05952957
96	0xbdd841a5	-0.10559396
97	0x3e153807	0.14572154
98	0xbe4cc45a	-0.19996777
99	0x3cba7ff0	0.022766083
100	0xbe182613	-0.14858274
101	0x3dd97754	0.10618463
102	0xbdf22e7e	-0.11825274
103	0x3ddb321a	0.107029155
104	0xbcf626ba	-0.030047763
105	0x3de8cdd9	0.11367387
106	0xbb09d50d	-0.002103153
107	0xbc332ba0	-0.010935694
108	0x3d895724	0.06706074
109	0x3dd2ae1b	0.10287114
110	0x3c601f74	0.013679374
111	0xbd942a17	-0.072345905
112	0x3cdc63e3	0.026903098
113	0xbe04c884	-0.12967116
114	0xbdf57a41	-0.11986209
115	0x3d05c631	0.032659713
116	0x3d20230f	0.039095934
117	0x3e0a3fdb	0.13500921
118	0x3d82f0bb	0.06393572
119	0xbd3f160c	-0.046651885
120	0x3c5a1bce	0.013312293
121	0x3d9b86fc	0.075941056
122	0x3db06d1c	0.08614561
123	0x3e0d824b	0.13819234
124	0xbdaea35b	-0.08527251
125	0xbcb26306	-0.021775734
126	0xbe0be82e	-0.13662788
127	0x3cb71d73	0.02235291
128	0xbd8b8e4d	-0.06814251
129	0x3d2fbc58	0.042904228
130	0xbd69a045	-0.05703761
131	0x3da582bd	0.08081577
132	0xbd9922f6	-0.074773714
133	0xbdcebf66	-0.100951
134	0xbd8ce372	-0.06879319
135	0xbdffeeb6	-0.124967024
136	0xbe146c67	-0.14494477
137	0x3b2c319d	0.002627469
138	0x3dc6fa6e	0.097157344
139	0xbc5d9ecf	-0.013526632
140	0xbc4345c5	-0.01191849
141	0x3d9dea6f	0.0771073
142	0xbdb504b4	-0.08838788
143	0x3dd487b2	0.10377444
144	0x3d9ea648	0.077465594
145	0x3e08655f	0.1331992
146	0xbdb5eb9d	-0.0888283
147	0x3d5d2d87	0.053998496
148	0xbb9715fe	-0.004610776
149	0xbdac6ff8	-0.08419794
150	0x3e1d4cd1	0.15361334
151	0xbc5b8f3a	-0.013400847
152	0x3a61b066	0.0008609354
153	0x3cc1a048	0.023635998
154	0xbdb18039	-0.08667035
155	0xbcae8f19	-0.021308469
156	0x3dc662bc	0.09686801
157	0xbcf5ce22	-0.030005518
158	0xbc666674	-0.014062513
159	0x3e1b9766	0.15194473
160	0x3d2be1ab	0.04196326
161	0x3c5eedd7	0.01360651
162	0x3bc7c657	0.006096642
163	0xbb8a2939	-0.00421634
164	0x3d9dafa0	0.076995134
165	0x3de4fbd5	0.11180846
166	0xbd34fa14	-0.044183806
167	0xbd9b8654	-0.075939804
168	0x3de9b371	0.11411179
169	0x3c5f5523	0.013631138
170	0x3c29b716	0.0103585925
171	0x3c67a1b9	0.014137679
172	0x3c2eaf8f	0.010661974
173	0x3da134fb	0.07871433
174	0x3da96ba5	0.08272485
175	0xbd586a2e	-0.052835636
176	0x3d4965e8	0.04916945
177	0x3d8a655c	0.06757614
178	0x3e1d3b83	0.15354733
179	0xbd87522b	-0.06607469
180	0x3dcbaf0a	0.099454954
181	0xbd9347df	-0.07191443
182	0xbabc25a7	-0.0014354483
183	0x3dd818c8	0.10551602
184	0xbdc63c89	-0.09679515
185	0xbb97780b	-0.0046224645
186	0xbbb9cdba	-0.0056702765
187	0xbdf6eb3f	-0.120565884
188	0xbe161d42	-0.14659598
189	0x3c58b8a2	0.013227614
190	0xbdbd9073	-0.09256067
191	0xbd33d46e	-0.04390376
192	0xbdf64614	-0.12025085
193	0x3e144acd	0.14481659
194	0xbdaf16b7	-0.085492544
195	0xbca2b43e	-0.019861337
196	0xbe1e4eb2	-0.15459707
197	0x3d032845	0.032020826
198	0xbd7ab836	-0.061210833
199	0xbd92dc00	-0.07170868
200	0x3da74dc4	0.081691295
201	0x3e1ac529	0.15114273
202	0xbd4e8192	-0.050416537
203	0xbb219de9	-0.0024660772
204	0xbdc1c2d4	-0.09460989
205	0xbddcf117	-0.10788172
206	0xbccb300e	-0.024803188
207	0xbd343469	-0.043995295
208	0xbe0a8818	-0.13528478
209	0xbd0dd3ea	-0.034625925
210	0xbe2669a9	-0.16251244
211	0x3dfe589a	0.12419243
212	0x3d574dfd	0.05256461
213	0xbd78946b	-0.060688417
214	0xbdb84b4b	-0.08998736
215	0xbd74dc44	-0.059780374
216	0xbd4ae578	-0.049535245
217	0x3d5400dc	0.051758632
218	0xbc8525c9	-0.016253369
219	0x3db2880d	0.08717356
220	0x3c7ac45e	0.015305607
221	0x3e10291f	0.14078186
222	0x3c962b54	0.018331207
223	0xbdf04af5	-0.11733047
224	0xbd9b6e96	-0.07589452
225	0x3c342672	0.010995494
226	0x3e1564db	0.14589255
227	0xbd57286e	-0.05252879
228	0x3c28656e	0.010278089
229	0x3d8ef67d	0.06980608
230	0x3d2364af	0.03989094
231	0xbc0b173f	-0.008489429
232	0xbe168453	-0.14698915
233	0xbcbb46b9	-0.022860872
234	0xbb4d6281	-0.003133923
235	0xbca78d05	-0.020452986
236	0xbe087be0	-0.13328505
237	0xbd37dce9	-0.04488841
238	0xbd2bc058	-0.04193148
239	0x3cf8dc64	0.030378528
240	0xbe1a7754	-0.15084583
241	0x3deba725	0.1150649
242	0x3d6fb386	0.058520816
243	0xbe0305d3	-0.1279519
244	0x3d75ac31	0.059978668
245	0x3e0cab3c	0.13737196
246	0xbd41964f	-0.047262486
247	0xbc82237d	-0.015886063
248	0xbd933b47	-0.07189041
249	0x3c0e4610	0.008683696
250	0x3e0adff6	0.13561997
251	0xbdc08833	-0.09400978
252	0x3e0b785a	0.13620129
253	0x3d873654	0.06602159
254	0x3dbafa0c	0.09129724
255	0xbdcad615	-0.09904114

sequential_5/dense_16/MatMul f4 [64, 128]
0	0xbe15ec60	-0.14640951
1	0x3ddef7e1	0.10887123
2	0xbd383d70	-0.044980466
3	0xbcaa136c	-0.020761214
4	0xbdd132d6	-0.10214774
5	0x3d9db5be	0.0770068
6	0xbe26174f	-0.16219829
7	0x3bcac9c2	0.006188602
8	0xbc53cf40	-0.01292783
9	0x3dfc499d	0.12318728
10	0xbe1d2ba8	-0.15348685
11	0x3ce83c02	0.028348926
12	0xbe18c27c	-0.1491794
13	0x3da0da93	0.0785419
14	0xbd3fc0c3	-0.04681469
15	0x3e04f479	0.12983884
16	0x3d28b5d6	0.041189037
17	0xbe2e7239	-0.1703576
18	0xbe28d6e2	-0.16488221
19	0xbd7f2cb2	-0.062298484
20	0xbdecb589	-0.115580626
21	0xbe233f80	-0.15942192
22	0x3c883b44	0.016629823
23	0x3e11f80b	0.14254777
24	0xbdd8cd0e	-0.10585986
25	0xbdaa4053	-0.0831305
26	0xbe249922	-0.1607404
27	0x3e327515	0.17427476
28	0x3d9053e6	0.07047252
29	0xbca8fd66	-0.020628642
30	0xbe04b0d7	-0.12958084
31	0xbd01ac04	-0.031658188
32	0xbe05f6d4	-0.13082439
33	0xbdeca7d0	-0.11555445
34	0x3d7556c6	0.059897207
35	0xbe0dfc9a	-0.13865891
36	0xbe082847	-0.13296615
37	0xbd92c414	-0.07166305
38	0xbd3ffa29	-0.04686943
39	0x3d4180a5	0.047241826
40	0x3dfa5aa4	0.122243196
41	0x3d7ad683	0.06123973
42	0x3c478511	0.012177722
43	0x3e0aefaf	0.13567995
44	0xbdc89dac	-0.097956985
45	0x3d8db808	0.06919867
46	0xbe1781f4	-0.14795667
47	0xbce78594	-0.028261937
48	0xbd492073	-0.04910321
49	0x3dcd27d4	0.10017362
50	0x3e00231e	0.12513396
51	0xbdcfb959	-0.10142774
52	0x3e1eb545	0.15498836
53	0xbd8148d6	-0.063127205
54	0xbd7baf4f	-0.061446484
55	0x3d3c71f4	0.04600711
56	0xbd1651dc	-0.03669916
57	0x3da66c66	0.08126144
58	0xbe063eb6	-0.1310986
59	0x3df3293c	0.11873099
60	0xbd6850a2	-0.056717522
61	0xbd8b2d5a	-0.067957595
62	0x3deef83c	0.11668441
63	0x3dfff40e	0.124977216
64	0xbe0f86c7	-0.14016257
65	0x3dd9a219	0.10626621
66	0xbe251c54	-0.16124088
67	0xbd07e78a	-0.033179797
68	0x3dc141d8	0.09436387
69	0xbe425894	-0.18979102
70	0x3ad6a400	0.001637578
71	0x3daabac9	0.08336408
72	0xbda54f90	-0.08071816
73	0x3c1fd3e2	0.009755107
74	0x3dd0a653	0.10187974
75	0x3d117c7d	0.035519112
76	0x3e2aced6	0.16680464
77	0x3c51c655	0.012803634
78	0xbdf022b6	-0.117253706
79	0x3d0372ef	0.03209203
80	0x3d9be25d	0.07611535
81	0x3db59397	0.08866041
82	0x3ae53e42	0.0017489868
83	0xbc8bfee8	-0.017089322
84	0xbe11746d	-0.14204569
85	0xbe3b8de5	-0.18315847
86	0x3cf7697e	0.03020167
87	0xbc5ed29b	-0.013600017
88	0xbb945be7	-0.004527557
89	0xbc3c5997	-0.011495969
90	0x3e0ffb49	0.14060701
91	0xbe1d2604	-0.15346533
92	0x3e02a8da	0.12759724
93	0xbddbec13	-0.10738387
94	0xbe1d6b5b	-0.15372984
95	0xbd2b9e94	-0.04189928
96	0xbdf669f4	-0.12031928
97	0xbd8d37cd	-0.06895409
98	0x3e2d87a3	0.16946273
99	0xbd9930d4	-0.07480016
100	0x3e0b6312	0.13612011
101	0xbe36c626	-0.17849025
102	0x3e28d363	0.16486888
103	0x3c102be4	0.008799527
104	0x3dc796bc	0.09745547
105	0xbe2ce102	-0.16882709
106	0xbdbf55a2	-0.09342505
107	0x3d044e10	0.03230101
108	0x3d22c4d4	0.03973849
109	0xbb0d7782	-0.0021586125
110	0xbe2bc15e	-0.16772982
111	0x3c1f7363	0.0097321
112	0x3d09ffe6	0.03369131
113	0xbc1b8b1a	-0.009493614
114	0x3d52c73c	0.051459536
115	0xbbbe6e31	-0.0058114757
116	0x3da37f84	0.07983306
117	0x3c3b0720	0.011415273
118	0x3deb6de5	0.1149557
119	0xbe21a99e	-0.1578736
120	0x3decadd1	0.1155659
121	0x3d7bafea	0.06144706
122	0x3e20d683	0.1570683
123	0x3dbe61e4	0.09296015
124	0x3c11b000	0.008892059
125	0xbe302be5	-0.17204244
126	0xbcee46ce	-0.029086497
127	0xbe0b6478	-0.13612545
128	0x3ca6c580	0.020357847
129	0x3e5fe0b6	0.21863064
130	0x3ddd928a	0.10818966
131	0xbe05f55f	-0.13081883
132	0xbe2c76d9	-0.16842212
133	0x3dbc90ec	0.09207329
134	0xbddf9177	-0.10916417
135	0xbdcd9ea7	-0.10040026
136	0xbca1bee4	-0.019744344
137	0xbcaf2546	-0.021380078
138	0xbdba2705	-0.09089474
139	0xbe22de92	-0.15905216
140	0x3e21b91d	0.15793271
141	0xbd8f1eed	-0.069883205
142	0x3e0d9a6e	0.13828442
143	0xbdf90817	-0.12159746
144	0x3bdfa84b	0.006825482
145	0x3d57b418	0.052661985
146	0x3e14a460	0.14515829
147	0xbdd209b0	-0.10255754
148	0x3ce20663	0.027590936
149	0xbe06a9c6	-0.13150701
150	0x3dcd8b3e	0.10036324
151	0xbd459ab0	-0.048243225
152	0x3d9692c2	0.073522106
153	0x3dab6c46	0.08370261
154	0x3ddfbaed	0.10924325
155	0x3e1343b3	0.14381294
156	0x3c9ddd95	0.019270698
157	0x3dcc2005	0.09967045
158	0xbd1e74ae	-0.038685493
159	0xbe33edef	-0.17571233
160	0x3d83d09a	0.06436272
161	0x3ddf59f2	0.109058276
162	0x3e2a0cfb	0.16606514
163	0xbddd4ce9	-0.10805685
164	0xbdc3c18a	-0.09558399
165	0xbd23056e	-0.0398001
166	0xbdb96f2a	-0.09054406
167	0xbe2aa44e	-0.1666424
168	0x3d9d7a4e	0.076893434
169	0x3e1a4c4b	0.15068166
170	0x3e9c1a9b	0.30489048
171	0xbd6eea88	-0.058329135
172	0xbe32630d	-0.17420597
173	0xbe2761bc	-0.16345876
174	0x3e282c08	0.16423047
175	0x3d78934e	0.060687356
176	0x3e3730e5	0.17889746
177	0x3d6787b7	0.056525912
178	0xbdddd206	-0.108310744
179	0x3e2147d1	0.15750052
180	0x3df535ce	0.11973153
181	0x3d32e54c	0.043675706
182	0xbddfede5	-0.10934047
183	0xbb32b5e5	-0.0027269062
184	0xbc5e5551	-0.013570146
185	0x3d842474	0.064522654
186	0xbde1b24d	-0.11020336
187	0xbe0e9832	-0.13925245
188	0x3defb576	0.11704533
189	0x3d2893f2	0.041156717
190	0xbdf9453f	-0.12171411
191	0xbdfb853c	-0.12281272
192	0x3d2f5807	0.04280856
193	0x3ded8924	0.11598423
194	0xbd9628eb	-0.07332023
195	0xbc82a586	-0.015948068
196	0x3deb9817	0.11503618
197	0xbd69c3a4	-0.057071343
198	0x3e1075aa	0.14107385
199	0x3dec6806	0.115432784
200	0xbe0ac90b	-0.13553254
201	0x3dca3702	0.09873773
202	0x3ddea338	0.10870975
203	0x3da3440d	0.07971964
204	0x3ded3f1f	0.11584305
205	0x3d2a042b	0.04150788
206	0x3ccc0f60	0.024909675
207	0xbd6c39af	-0.0576722
208	0xbd0016f7	-0.0312719
209	0x3946d8f1	0.00018963568
210	0x3d1c89fd	0.038217533
211	0xbc869b40	-0.01643145
212	0xbcfa6a14	-0.03056816
213	0x3d39fccf	0.045407113
214	0x3cf6083e	0.030033227
215	0x3e36cbe1	0.17851211
216	0xbe1644e0	-0.14674711
217	0x3d037f24	0.032103673
218	0x3e0e42c8	0.13892663
219	0x3e368aa9	0.17826332
220	0xbd306fda	-0.04307542
221	0x3d7842a2	0.06061042
222	0xbe118c61	-0.14213707
223	0xbd5ef1ed	-0.054429937
224	0x3dd6d51d	0.10489867
225	0xbd314e0d	-0.043287326
226	0x3d6a0735	0.05713578
227	0x3d235895	0.0398794
228	0xbe13ef73	-0.14446811
229	0xbe07e508	-0.13270962
230	0xbd799327	-0.06093135
231	0x3dcd0446	0.10010581
232	0x3da7884f	0.08180296
233	0xbdcb314e	-0.099215135
234	0xbd318d21	-0.04334748
235	0x3daa3589	0.08310992
236	0x3e172bc8	0.14762795
237	0x3b9855ea	0.0046489136
238	0x3c8603d3	0.016359245
239	0x3c93f483	0.018060928
240	0x3e842c45	0.25815025
241	0xbb1e5484	-0.0024159262
242	0xbdbce4cd	-0.09223328
243	0x3d93b151	0.07211555
244	0xbde36931	-0.11104048
245	0xbd249d9e	-0.040189378
246	0x3d95e77e	0.07319544
247	0x3de6616b	0.1124905
248	0x3da9e0ee	0.08294855
249	0x3cba5bb5	0.022748807
250	0xbdca5f9f	-0.098815195
251	0xbe3143ee	-0.1731107
252	0x3e1d70cb	0.15375058
253	0xbde9b717	-0.11411875
254	0xbe1dd0ad	-0.15411635
255	0xbe17605d	-0.14782853

sequential_5/dense_17/MatMul f4 [1, 64]
0	0x3e8a64d3	0.27030048
1	0xbe4733a6	-0.19453296
2	0xbdab3257	-0.08359211
3	0x3e843d9d	0.25828257
4	0xbe692e4d	-0.22771569
5	0xbd2ae28a	-0.04171995
6	0xbe705d25	-0.23473032
7	0xbdfbc8c6	-0.12294154
8	0x3e9270d8	0.28601718
9	0x3e28b5d8	0.16475618
10	0xbd848a0e	-0.06471644
11	0x3dd6e10a	0.104921415
12	0xbe293a33	-0.16526107
13	0xbe32b263	-0.17450862
14	0x3e6f97b4	0.23397714
15	0x3e8c99bd	0.27461043
16	0x3e7cb13c	0.24676985
17	0xbd9a3e18	-0.07531375
18	0x3d9d8683	0.07691672
19	0xbe009bc1	-0.12559415
20	0x3e302563	0.17201762
21	0xbe3a1d33	-0.18175201
22	0xbe85e515	-0.26151338
23	0xbd5ffb63	-0.0546831
24	0xbd87aea2	-0.066251054
25	0xbe8a65ab	-0.27030692
26	0xbe649f0f	-0.22326301
27	0xbd0a46e9	-0.03375903
28	0x3e5a8513	0.21339826
29	0xbe350119	-0.176762
30	0xbe6f7845	-0.23385723
31	0x3e87a67a	0.264942
32	0xbd528683	-0.05139781
33	0xbe65fa0d	-0.22458668
34	0xbe3c5705	-0.1839257
35	0xbdc5d1c1	-0.09659148
36	0x3c506edb	0.0127217425
37	0x3e845279	0.25844172
38	0x3e7a9b1e	0.24473235
39	0x3e5e8363	0.21729808
40	0xbe196a45	-0.14981945
41	0xbe874125	-0.2641689
42	0xbe314430	-0.17311168
43	0xbc6748cb	-0.014116476
44	0x3d18a239	0.037264083
45	0x3de9b6a4	0.11411789
46	0x3e5d12fc	0.21589273
47	0x3c64f918	0.013975404
48	0xbe61058e	-0.21974775
49	0xbe0fa908	-0.14029324
50	0x3d96c1e6	0.07361202
51	0x3cbc836a	0.023011882
52	0xbdb714ef	-0.0893954
53	0x3e389108	0.18024075
54	0x3b8115d4	0.0039393697
55	0xbe398b86	-0.1811963
56	0x3d4dc59a	0.050237276
57	0xbda8e79b	-0.082473
58	0xbe92142b	-0.28531012
59	0x3d9fe0a6	0.0780652
60	0xbdf8c29a	-0.12146492
61	0xbe86fd9c	-0.26365364
62	0xbe8c8dab	-0.27451834
63	0xbe266869	-0.16250767

sequential_5/conv1d_15/Conv1D f4 [6, 1, 3, 6]
0	0xbe866a87	-0.2625315
1	0xbe79b640	-0.24385929
2	0xbdeb450b	-0.11487778
3	0xbd2ef1d9	-0.042711113
4	0x3dbf270e	0.09333621
5	0xbe953607	-0.29142782
6	0x3ead82d0	0.33888865
7	0xbe962b35	-0.2932984
8	0x3ec7b241	0.39003184
9	0x3d5456b8	0.051840514
10	0xbe8a4953	-0.27009067
11	0xbeab4850	-0.33453608
12	0x3e8bf718	0.27336955
13	0xbc2c6513	-0.010522145
14	0xbccdfdfe	-0.025145527
15	0xbdac9a2f	-0.08427846
16	0xbe9f573f	-0.3112125
17	0x3e81f72f	0.253839
18	0xbe672c66	-0.2257553
19	0x3ece741b	0.40322956
20	0xbe323b5c	-0.17405456
21	0x3e768fc9	0.24078287
22	0x3e9e18fd	0.3087844
23	0x3e2b6eb3	0.16741447
24	0x3d8b259a	0.06794281
25	0xbea95400	-0.330719
26	0x3e83fa35	0.2577683
27	0xbe8d3635	-0.2758042
28	0x3ea1cdcf	0.31602332
29	0xbe8cdbf4	-0.2751156
30	0xbe23d226	-0.15998134
31	0xbe83c18f	-0.2573361
32	0x3ecf73d5	0.4051806
33	0xbdc1da35	-0.09465448
34	0xbd9cfe1a	-0.076656535
35	0x3e068764	0.13137585
36	0x3ca641a5	0.020294974
37	0x3d73319d	0.059373487
38	0x3eb54a1e	0.3540811
39	0xbea6a065	-0.32544246
40	0xbeaed6a1	-0.34148124
41	0x3da2c12c	0.07947001
42	0x3dd39cc0	0.10332632
43	0x3dd73c6a	0.1050957
44	0x3eaa82c0	0.3330288
45	0xbe2880b1	-0.16455342
46	0x3de5da25	0.112232484
47	0xbddc7a74	-0.107655436
48	0x3e21e351	0.1580937
49	0x3e9e66b2	0.30937725
50	0xbe6717c7	-0.22567664
51	0xbe199f97	-0.15002285
52	0x3c1e72c8	0.009670921
53	0x3eb0dddb	0.34544262
54	0x3eaae914	0.3338095
55	0x3e2d601f	0.16931199
56	0x3ebee949	0.37287357
57	0xbe52f40b	-0.20600908
58	0xbe53af9f	-0.20672463
59	0x3e003e5b	0.12523787
60	0x3e02b7c5	0.12765415
61	0x3ea04ffe	0.3131103
62	0xbeb8f6c9	-0.36125782
63	0xbe19d680	-0.15023232
64	0xbd825d45	-0.06365446
65	0xbeba8fbf	-0.36437795
66	0x3eaf3f6c	0.34228075
67	0xbe6ae4ee	-0.22938892
68	0x3e965582	0.29362112
69	0xbd558d59	-0.052136753
70	0x3dfa80b9	0.12231583
71	0xbea461df	-0.3210592
72	0xbd9ea1fc	-0.0774574
73	0x3d86feac	0.065915436
74	0xbd0061f0	-0.0313434
75	0xbe8f25e3	-0.27958593
76	0xbe8551b3	-0.26038894
77	0x3e418200	0.18897247
78	0xbda51a5c	-0.08061668
79	0xbd977254	-0.07394853
80	0xbe746d7e	-0.23869893
81	0xbd1113c8	-0.035419255
82	0xbea39712	-0.31951195
83	0xbe7c3ead	-0.24633284
84	0xba336600	-0.0006843507
85	0xbe8ecc3a	-0.27890188
86	0x3dee9998	0.116503894
87	0xbda655f0	-0.0812186
88	0xbe4c47f2	-0.1994932
89	0x3e64a7a4	0.22329575
90	0x3c9f49e0	0.019444406
91	0x3d8b69a0	0.06807256
92	0xbd773e68	-0.06036225
93	0x3e2da06c	0.16955727
94	0x3e65f6e4	0.22457463
95	0x3e19381c	0.1496281
96	0x3ec4f8a6	0.38470954
97	0x3db7bd18	0.08971614
98	0xbeb420d2	-0.3518129
99	0xbec7c3ed	-0.39016667
100	0x3e80fa8a	0.25191146
101	0x3ea642be	0.32472795
102	0xbcf25500	-0.029581547
103	0xbe3520a3	-0.17688231
104	0x3e5cca8c	0.2156164
105	0x3dd090e8	0.10183889
106	0x3d4d1020	0.050064206
107	0x3d8264f0	0.063669086

sequential_5/conv1d_16/Conv1D f4 [12, 1, 3, 6]
0	0xbeb2fa5a	-0.34956628
1	0x3e72fefc	0.23730081
2	0xbe913572	-0.28361088
3	0x3e0d7c18	0.1381687
4	0xbdefc480	-0.11707401
5	0xbe5d8476	-0.21632561
6	0xbd856bb2	-0.06514682
7	0x3e973719	0.29534224
8	0xbdc74442	-0.09729816
9	0xbe98db25	-0.29854694
10	0x3e8c3201	0.273819
11	0x3bcb7ec0	0.006210178
12	0x3ea8763f	0.32902715
13	0xbd27b991	-0.040948454
14	0xbda8b33d	-0.08237312
15	0xbeb7450d	-0.3579487
16	0xbe8e1d68	-0.2775681
17	0xbe8663ae	-0.26247925
18	0xbe0a2d29	-0.1349379
19	0xbe7c7761	-0.24654914
20	0xbe587e34	-0.21141893
21	0xbe8a41cd	-0.27003327
22	0x3e5300e6	0.20605811
23	0x3e45fa42	0.19333747
24	0xbe4c588c	-0.19955653
25	0xbe163a6d	-0.14670725
26	0xbeb4c2a6	-0.35304755
27	0x3e988abd	0.2979335
28	0x3cb227d0	0.0217475
29	0x3e930643	0.28715715
30	0xbba4787d	-0.005019246
31	0x3c191715	0.009343882
32	0x3d755cc3	0.059902918
33	0x3e4bf8be	0.19919106
34	0xbe31d136	-0.17364964
35	0xbe283070	-0.16424727
36	0xbe21e9c2	-0.15811828
37	0xbe97677b	-0.29571137
38	0xbd73f4ca	-0.05955962
39	0xbe339f25	-0.17541178
40	0xbd8e1080	-0.06936741
41	0x3e8bac13	0.2727972
42	0xbe9d7d05	-0.30759445
43	0xbea8925e	-0.3292417
44	0x3e1fe8f0	0.15616202
45	0xbd5c0c4e	-0.053722672
46	0xbd1fd6e8	-0.03902331
47	0xbe208bdb	-0.1567835
48	0x3bbc4740	0.0057457983
49	0xbe6bafb6	-0.23016247
50	0xbe4b2dcb	-0.19841687
51	0x3e1b841c	0.15187114
52	0x3d1f1040	0.038833857
53	0x3e9514fd	0.29117575
54	0x3e7b04f2	0.24513605
55	0xbe86bee4	-0.26317513
56	0x3e368a46	0.17826185
57	0xbc35898c	-0.011080157
58	0x3d5dc340	0.054141283
59	0xbe84ad16	-0.25913304
60	0x3db754ab	0.08951696
61	0x3dc083b0	0.094001174
62	0xbe8f2a31	-0.27961877
63	0x3d715388	0.058917552
64	0x3e468332	0.19385985
65	0x3e4c6082	0.1995869
66	0xbe6c97dd	-0.23104806
67	0x3da19e7b	0.07891556
68	0x3d4e2236	0.050325595
69	0xbe252ec9	-0.16131128
70	0xbea5c0e0	-0.32373714
71	0x3d086640	0.03330064
72	0x3dd82a29	0.105549164
73	0x3e84f2f8	0.2596662
74	0x3db21cb5	0.08696882
75	0xbd9c03a3	-0.07617881
76	0xbd7b9798	-0.061423868
77	0x3e18efc6	0.14935216
78	0x3e05dc99	0.13072433
79	0xbe72b310	-0.2370112
80	0xbe854f16	-0.260369
81	0xbe3e7193	-0.18598013
82	0x3db51a40	0.088428974
83	0xbe115bb0	-0.14195132
84	0x3e3823ed	0.17982455
85	0xbe010f7c	-0.12603563
86	0xbe3755a8	-0.17903769
87	0x3e9e0595	0.30863634
88	0xbe69dbb6	-0.2283772
89	0x3dc9f720	0.098615885
90	0xbe7bcf55	-0.2459081
91	0xbe9fb360	-0.3119154
92	0x3e7c484e	0.24636957
93	0xbe72de76	-0.23717675
94	0xbd3d88e8	-0.046273142
95	0x3e9173cb	0.28408656
96	0x3e9e7ba0	0.30953693
97	0x3d1e7f3e	0.038695566
98	0x3e236b17	0.1595882
99	0x3e7fb178	0.24970043
100	0xbe637646	-0.22213086
101	0x3e8679e1	0.2626486
102	0xbe15bd3d	-0.1462297
103	0xbe879436	-0.26480263
104	0x3e623b94	0.2209304
105	0xbe807875	-0.250919
106	0x3e9a5d53	0.30149326
107	0xbe77553b	-0.24153607
108	0x3e5ee6c4	0.21767718
109	0x3e82447a	0.25442868
110	0xbea07455	-0.31338754
111	0xbdbccbde	-0.09218572
112	0xbe98905e	-0.29797643
113	0xbd7e6ad8	-0.062113613
114	0x3da6d230	0.08145559
115	0x3e5252ce	0.205394
116	0x3e8f33a6	0.27969092
117	0x3daf4401	0.085578926
118	0xbdc5510c	-0.09634599
119	0xbea2be4b	-0.31785807
120	0x3d813ab0	0.06310022
121	0x3e206568	0.15663683
122	0xbe02af88	-0.12762272
123	0xbd32b1d7	-0.043626633
124	0x3d42fed8	0.04760632
125	0x3e92fd59	0.28708914
126	0xbe767b0e	-0.24070379
127	0xbe21ffc4	-0.15820223
128	0xbe7de022	-0.24792531
129	0x3ce41fd5	0.02784721
130	0x3cc66550	0.024218231
131	0xbcedb730	-0.029018015
132	0xbe4116dc	-0.18856376
133	0x3dfdee33	0.123989485
134	0x3e8c3de0	0.27390957
135	0x3e620d05	0.22075279
136	0x3e15e8e0	0.14639616
137	0xbe94b940	-0.29047585
138	0xbe8818b6	-0.26581353
139	0x3e38c1c4	0.18042666
140	0xbd3941c4	-0.045228735
141	0xbe67051e	-0.22560546
142	0xbe86a9d8	-0.26301455
143	0x3c852d00	0.01625681
144	0x3e2df7fd	0.16989131
145	0x3d7dafb2	0.061935134
146	0xbb08f1c6	-0.0020896061
147	0x3e19309a	0.14959946
148	0x3dc76b14	0.097372204
149	0xbe2fe570	-0.17177367
150	0xbd09d8f5	-0.033654172
151	0xbe4e8c1a	-0.20170632
152	0x3eab9bfc	0.33517444
153	0xbeab1ed4	-0.33421957
154	0xbe89e4f0	-0.26932478
155	0x3e8916f1	0.26775315
156	0x3dae3fec	0.08508286
157	0xbe7b8705	-0.24563225
158	0x3de4ebf8	0.1117782
159	0xbe8afbf3	-0.27145347
160	0xbe86749b	-0.26260838
161	0xbdabb696	-0.08384435
162	0xba1b76f9	-0.0005930509
163	0xbe257cca	-0.16160884
164	0x3d0f287b	0.034950715
165	0x3e5db1ca	0.21649852
166	0x3d0f7a58	0.035028785
167	0x3e7726f2	0.2413595
168	0xbbd3dc9c	-0.0064655077
169	0x3e02d783	0.12777524
170	0xbe376bb2	-0.17912176
171	0xbe830237	-0.25587627
172	0xbea1d956	-0.31611127
173	0x3e44edfa	0.19231406
174	0xbd83df14	-0.06439033
175	0xbe0854ee	-0.13313648
176	0x3d48d3ba	0.049030043
177	0xbe8ed3f7	-0.2789609
178	0xbe93412e	-0.28760666
179	0xbc49c160	-0.012314171
180	0xbe83aaea	-0.25716335
181	0xbe3f38a1	-0.18673946
182	0xbe0af9f3	-0.1357191
183	0x3e7bed2b	0.24602191
184	0xbe8ed668	-0.27897954
185	0x3e6fb242	0.23407844
186	0xbe70bdfb	-0.23509972
187	0x3d7cdf14	0.06173618
188	0x3e84744e	0.25869983
189	0xbccac69a	-0.024752904
190	0xbd6a6098	-0.057221025
191	0x3d9938a0	0.074815035
192	0xbdc54f4d	-0.09634266
193	0x3e8d933c	0.27651393
194	0x3e91596a	0.2838853
195	0xbe9bdf4c	-0.304438
196	0xbe0a1a7b	-0.13486664
197	0xbdc7c0d6	-0.097535774
198	0xbd4d0759	-0.050055835
199	0x3e97c9e5	0.2964622
200	0xbd3f43a3	-0.046695363
201	0x3e7326f5	0.2374533
202	0x3e3b75d2	0.18306664
203	0x3db4e7b4	0.08833256
204	0x3de50b8b	0.11183842
205	0xbe7972e6	-0.24360237
206	0xbdd7a41c	-0.10529348
207	0x3e826fc1	0.25475886
208	0x3de86754	0.11347833
209	0xbd4ced68	-0.050031096
210	0xbe50bb63	-0.20383982
211	0xbeb32c78	-0.34994864
212	0xbd6d1356	-0.05787977
213	0x3d11825b	0.035524707
214	0xbea1a8c6	-0.31574076
215	0xbe7512fb	-0.23933022

sequential_5/conv1d_17/Conv1D f4 [24, 1, 3, 12]
0	0xbd511268	-0.051042944
1	0x3e7dfae6	0.24802741
2	0xbddd2689	-0.107983656
3	0xbe2b187b	-0.16708557
4	0xbd838a56	-0.0642287
5	0x3cd613c0	0.026132464
6	0xbe0c15bf	-0.1368017
7	0x3c474737	0.012162975
8	0xbe2b5c1b	-0.16734354
9	0x3d65afe2	0.056075938
10	0xbc86a010	-0.016433746
11	0xbcb52fcd	-0.02211752
12	0xbe5cd4df	-0.21565579
13	0xbe4cf53c	-0.20015424
14	0x3c191ffb	0.009346004
15	0xbe7a1f73	-0.2442606
16	0x3d5a9d95	0.05337294
17	0xbe272682	-0.16323283
18	0x3e3f48b7	0.18680082
19	0xbe6a52aa	-0.22883096
20	0x3d6c0624	0.057623044
21	0xbe0dd1b2	-0.13849524
22	0xbdc8dd44	-0.09807828
23	0x3e0d83b9	0.1381978
24	0x3e3f9be0	0.18711805
25	0x3dca35fa	0.098735765
26	0xbdace332	-0.084417716
27	0x3e14c1e2	0.14527085
28	0x3dbc8c85	0.092064895
29	0xbcc4e590	-0.024035245
30	0xbe69dec8	-0.2283889
31	0x3d724467	0.059147265
32	0xbe11bb25	-0.14231546
33	0x3e37e97c	0.17960161
34	0x3e7b9c45	0.24571331
35	0x3d7cae7e	0.061689846
36	0xbd6191b3	-0.05507059
37	0x3e254879	0.16140927
38	0x3e3773fc	0.17915338
39	0xbdf52ddc	-0.119716376
40	0x3e15830d	0.14600773
41	0x3c8c3d08	0.017118946
42	0xbe429e6b	-0.19005744
43	0x3e2d550b	0.16926973
44	0x3db3cf91	0.087798245
45	0xbeabfa80	-0.33589554
46	0x3d8de804	0.06929019
47	0x3dfdba8b	0.12389096
48	0xbe85c145	-0.26124015
49	0xbe3f635c	-0.18690246
50	0x3e40ecce	0.18840334
51	0x3e65125b	0.22370283
52	0x3d92b2e6	0.071630284
53	0x3e4017a5	0.1875902
54	0x3d3856a3	0.0450045
55	0xbb5e0ef9	-0.0033883436
56	0xbde4538e	-0.11148749
57	0xbe4435c7	-0.1916114
58	0xbcb4b829	-0.02206047
59	0x3e09a9c1	0.13443662
60	0xbc064b9f	-0.00819674
61	0xbe5d1296	-0.21589121
62	0xbe10b73d	-0.141324
63	0xbd04c230	-0.032411754
64	0xbdd83e8e	-0.10558806
65	0xbdf38d98	-0.11892241
66	0xbe4d029f	-0.20020531
67	0xbdd1f7d6	-0.10252349
68	0xbe0d2ed7	-0.13787399
69	0xbd0f8db4	-0.035047248
70	0xbd7feaa7	-0.06247964
71	0x3d78eff6	0.06077572
72	0xbd64038f	-0.055667456
73	0xbd76ff2f	-0.060301956
74	0x3e7443b9	0.23853959
75	0x3c51489e	0.012773661
76	0x3d1862a2	0.03720344
77	0x3d8f8adc	0.07008907
78	0x3db8e445	0.09027914
79	0x3dbe57a5	0.092940606
80	0x3de9c4e2	0.114145055
81	0xbde547cd	-0.111953355
82	0xbdab8caf	-0.08376443
83	0xbc7847cc	-0.015153836
84	0xbd0a7b67	-0.033809092
85	0xbe4cb151	-0.19989516
86	0xbe59da91	-0.21274783
87	0xbe31df96	-0.17370448
88	0xbd229728	-0.039694935
89	0x3e04eefd	0.12981792
90	0x3e488964	0.1958366
91	0xbdaf9b28	-0.085745156
92	0x3e347b8b	0.17625253
93	0x3e44a90e	0.19205114
94	0xbd9d6187	-0.076846175
95	0x3dc70820	0.097183466
96	0xbe514da1	-0.2043977
97	0xbd8638be	-0.065537915
98	0xbe0dafa1	-0.13836528
99	0x3e2839a5	0.1642824
100	0x3d6171d0	0.05504018
101	0xbdba4a39	-0.09096188
102	0xbe5a1525	-0.21297128
103	0x3c761b2f	0.0150211295
104	0x3e02bd19	0.12767448
105	0x3d2614cb	0.040547173
106	0xbe3d426a	-0.18482366
107	0x3da1275c	0.07868835
108	0xbe559355	-0.20856984
109	0x3bc20185	0.0059205913
110	0x3e3ceada	0.18448964
111	0x3c5514f2	0.013005482
112	0xbe303f4e	-0.17211649
113	0xbe0c4636	-0.13698658
114	0x3e0f710c	0.14007968
115	0x3ce05ac4	0.02738703
116	0xbd0ba95e	-0.034097068
117	0xbe39b60a	-0.18135849
118	0x3e2e5151	0.17023207
119	0xbe0d0543	-0.13771538
120	0xbde604be	-0.11231373
121	0xbdb33cf2	-0.08751859
122	0x3d12a0f1	0.035798017
123	0x3e5f4b2f	0.21806024
124	0x3e601af4	0.21885282
125	0xbe4a403b	-0.19751064
126	0x3df05204	0.11734393
127	0xbd96fdb4	-0.07372609
128	0x3da7f5f4	0.08201209
129	0xbd26d149	-0.040726934
130	0x3e2a90b1	0.16656758
131	0xbd94b84a	-0.07261713
132	0x3d533b64	0.05157031
133	0x3cf9299c	0.030415349
134	0xbe05a33c	-0.1305055
135	0xbd8dcddb	-0.069240294
136	0x3dc0f073	0.09420862
137	0xbdf0fc55	-0.117668785
138	0x3d24b5d5	0.04021247
139	0x3e4a9e34	0.19786912
140	0x3db91bbd	0.09038494
141	0x3df0c48b	0.117562376
142	0x3d3378fd	0.043816555
143	0xbe2b6e7e	-0.16741368
144	0x3e01d5b1	0.12679173
145	0x3b967c06	0.0045924215
146	0xbcec8f80	-0.02887702
147	0xbe6c54af	-0.23079179
148	0x3d61bc5b	0.05511127
149	0x3d279253	0.04091103
150	0xbe091bad	-0.13389464
151	0xbdc24d62	-0.09487416
152	0xbe7b451f	-0.24538086
153	0xbc87b96f	-0.016567914
154	0xbde8fd5a	-0.11376448
155	0x3e2473e3	0.16059832
156	0x3dd6f720	0.10496354
157	0x3e1f3f74	0.15551549
158	0xbe3ef4cd	-0.18648072
159	0xbbf639d3	-0.0075142174
160	0x3e53c9a4	0.20682389
161	0xbd2c5198	-0.04207
162	0x3e61cda4	0.22051102
163	0xbdc1b298	-0.09457892
164	0xbe343c68	-0.17601168
165	0xbde5b96e	-0.112170085
166	0xbe3ed077	-0.1863421
167	0xbcc529cb	-0.02406778
168	0xbe1166c3	-0.14199357
169	0xbacd1ed4	-0.0015649446
170	0x3d5d724c	0.05406408
171	0x3b16e3ac	0.0023023887
172	0x3e3e3dcc	0.18578261
173	0x3e695c33	0.22789077
174	0xbe3d2ef9	-0.1847495
175	0xbe5a1c33	-0.2129982
176	0x3e50420e	0.20337698
177	0x3d0870bb	0.033310633
178	0xbdf263a8	-0.11835414
179	0x3c4dab11	0.012552992
180	0x3e08b8eb	0.1335179
181	0xbe525490	-0.2054007
182	0xbe01fde4	-0.12694508
183	0x3d3c14f9	0.04591844
184	0xbddd37f1	-0.108016856
185	0xbd4c9753	-0.049949
186	0x3e187604	0.1488877
187	0xbe076de1	-0.13225509
188	0xbd86c618	-0.06580752
189	0xbd4b781f	-0.049675103
190	0x3e2e592c	0.17026204
191	0xbe2b5688	-0.16732228
192	0xbe49a417	-0.19691502
193	0x3db98a36	0.09059565
194	0x3d273ae0	0.040827632
195	0xbdda6431	-0.10663641
196	0x3d12f58d	0.035878707
197	0xbe26b19c	-0.1627869
198	0x3d2dcf0d	0.042433787
199	0xbdea6e35	-0.114468016
200	0x3e68fdb1	0.22753026
201	0x3dd37d83	0.10326674
202	0x3dfcaac7	0.12337261
203	0xbd95fb90	-0.07323372
204	0x3cea65a9	0.028612928
205	0xbc9ff349	-0.019525187
206	0x3e101e39	0.14074029
207	0x3e592dde	0.21208903
208	0xbe1fe839	-0.1561593
209	0xbdfe1546	-0.12406401
210	0xbdcbfaa7	-0.099599175
211	0x3d94c8df	0.072648756
212	0xbc6d48e7	-0.014482713
213	0xbe463b47	-0.1935855
214	0x3d15f0ad	0.03660648
215	0xbe275e97	-0.16344677
216	0xbe040521	-0.12892582
217	0xbe0c2c2d	-0.13688727
218	0xbd163145	-0.03666808
219	0xbe029951	-0.12753798
220	0xbdca735b	-0.098852836
221	0xbe31ab8d	-0.17350598
222	0xbe5bc98b	-0.21463601
223	0x3d6877d6	0.05675491
224	0x3e3c3fc8	0.18383706
225	0xbe1220ff	-0.142704
226	0xbb867794	-0.0041036103
227	0xbe67ac2f	-0.22624277
228	0x3ce5a153	0.028031027
229	0xbe06a5e9	-0.13149227
230	0xbdca1b0d	-0.09868441
231	0x3e0e9a76	0.1392611
232	0x3d5fc1ba	0.05462811
233	0x3e2979d3	0.16550379
234	0xbda88bc8	-0.08229786
235	0xbdb2296c	-0.08699307
236	0xbd83c3e9	-0.06433851
237	0xbe1aa4ae	-0.15101883
238	0x3e5046e7	0.20339547
239	0x3e252467	0.16127168
240	0x3e76d0b1	0.24103047
241	0xbdd732c4	-0.1050773
242	0x3a1042dd	0.00055031275
243	0x3e3254ee	0.1741521
244	0xbdef8da8	-0.11696941
245	0xbe27ad97	-0.16374813
246	0x3dcb24d4	0.09919134
247	0x3c99d2b4	0.018777229
248	0x3e44ccf0	0.19218802
249	0xbe058eb3	-0.13042717
250	0xbe165099	-0.14679183
251	0xbd82659d	-0.063670374
252	0xbd140774	-0.03613992
253	0x3c1a8765	0.009431695
254	0xbb741e5c	-0.003724954
255	0xbe61a1a4	-0.22034317
